models/handseg.onnx (onnx, 41951 bytes, 11 tensors)

up1.up.bias f4 [64]
000000 61 26 b6 be 03 9a 50 be 6e 03 b8 be e8 e3 17 be
       -0.35576156 -0.20371251 -0.35940117 -0.14833033
000010 ef 55 6c 3e b8 5d 94 be 03 8c 6f 3e c3 57 bf 3e
       0.23079656 -0.28977752 0.23393254 0.37371644
000020 c3 f8 5a 3e f0 5d bf bd 02 05 c1 3e ff b1 22 bd
       0.21383958 -0.09344089 0.37699133 -0.03972053
000030 dd 30 72 bb 46 30 32 be be 41 08 be bd f2 f0 3e
       -0.0036955394 -0.17401227 -0.13306329 0.47060195
000040 ca 9e 04 bf 01 da 93 be 95 97 09 3e 85 43 e0 be
       -0.5180479 -0.2887726 0.1343673 -0.43801513
000050 56 a6 0a bf c4 f1 06 3e 09 6a 89 3e 1f 02 5c bd
       -0.5416006 0.13178164 0.2683871 -0.05371296
000060 4a 25 8c be 60 3d bd 3e 71 7e 18 3f 0e 63 8e 3c
       -0.273722 0.36960888 0.59567934 0.017381217
000070 c9 77 90 3e d3 5d 9d be 04 86 02 bd cf 5e 40 be
       0.2821639 -0.30735645 -0.03186609 -0.18786167
000080 dc 6d 71 3e d9 9f b1 be 3c 9a ef 3e 66 55 d2 3e
       0.23577064 -0.34692267 0.4679736 0.4108078
000090 a2 b2 c6 be 71 d4 a5 3e 04 34 84 3e b2 06 eb 3e
       -0.3880816 0.32388642 0.25820935 0.45903546
0000a0 e6 e5 66 3c a0 41 dc 3e 88 7e a3 be 1c c4 8a 3e
       0.014092898 0.43018818 -0.31932473 0.27102745
0000b0 c0 4c 88 3e 0a aa fc 3e df e5 2c 3e a1 b0 6f be
       0.26621056 0.4934848 0.16884564 -0.23407222
0000c0 3e 2b 0b 3e e0 c5 af be 4d 55 85 be 12 cc 60 be
       0.13590714 -0.34330654 -0.26041642 -0.21952847
0000d0 af 8e ae be 30 65 bc 3e ed 7b 84 bd e5 a8 bc bd
       -0.34093234 0.3679595 -0.064689495 -0.092119016
0000e0 a7 03 09 bf 65 f1 93 3d 5c 64 9c 3e d1 57 4f be
       -0.535212 0.07223777 0.30545318 -0.20248343
0000f0 7c a6 c8 3d 30 77 c2 3e 5f a8 a3 3e b9 ee 92 3d
       0.097973794 0.37981558 0.31964394 0.07174439

up2.up.bias f4 [32]
000000 b3 4f 08 3e 25 3a f1 be 2f 2c 5b be 46 66 ea bd
       0.13311653 -0.47114673 -0.21403573 -0.11445288
000010 91 17 d0 bd 8d 66 17 3c 82 27 97 3e 80 35 be 3e
       -0.10160745 0.009240759 0.2952233 0.37150192
000020 a0 9c af 3e 02 53 52 3e 48 c6 e3 bc 87 a3 a6 3e
       0.34299183 0.20539477 -0.027804509 0.32546636
000030 47 7c c6 3d e6 d1 cb be cf b0 2b be 24 a8 20 3b
       0.09691673 -0.39808577 -0.16766666 0.0024514282
000040 16 6f 0c 3e 4e a0 c9 bd cb 97 0e be 0b 5c a2 3e
       0.13714251 -0.09845029 -0.13925092 0.31710848
000050 2e 4e 95 3d b2 f6 29 3f ae 7e a5 3e e1 8a 4b bc
       0.07290302 0.6639205 0.3232321 -0.012423248
000060 cf b3 2a 3c 6b 3c 15 bf 46 3f f5 bd 0b 7c e8 3e
       0.010418846 -0.58295316 -0.11974959 0.45407137
000070 6e ac 9f 3d 35 f8 11 bf be 92 e2 3e e6 d1 77 3d
       0.0779656 -0.5701936 0.4425258 0.06050291

outc.weight f4 [1, 32, 1, 1]
000000 f7 a8 c7 be 2c 1a e5 3d 40 21 0b 3e f6 db c2 be
       -0.38996097 0.111866325 0.13586903 -0.38058442
000010 ee cd bf be 82 ae d1 be 57 dc 00 bf 62 91 cd be
       -0.374618 -0.4095345 -0.5033621 -0.4014998
000020 31 56 df be 49 b2 cc be e0 5f ee be a9 e1 e3 be
       -0.43620446 -0.3997977 -0.46557522 -0.44508103
000030 d6 02 b4 3d 05 a1 bc be a7 ef 4d 3e 2b 72 60 3e
       0.087896034 -0.36841598 0.20110951 0.21918552
000040 e2 f8 fc be 19 ea 17 3e fa c0 25 3e f4 f9 da be
       -0.49408633 0.14835395 0.16186896 -0.42768824
000050 e3 30 e7 be b5 ed cf be 97 a1 65 3e c9 a7 c2 be
       -0.45154485 -0.40611044 0.22424923 -0.38018635
000060 da 59 e2 be 93 49 c8 be 77 12 0b 3e 00 17 27 3e
       -0.44209176 -0.39118633 0.13581263 0.16317368
000070 b8 ff d0 be cd 9f b9 be ea 2e 3c 3e 2c 55 d3 be
       -0.40820098 -0.3625473 0.18377271 -0.41275918

input_bias f4 [32]
000000 52 bf 2e 3d b4 4e ab be 06 5b e5 bd b6 cd b0 bd
       0.042662926 -0.33458483 -0.11199002 -0.08632986
000010 90 2d 66 3e d6 39 7d be 90 9e 86 bd 06 8f 92 be
       0.22478318 -0.24729094 -0.06573212 -0.28624743
000020 4e 41 c7 be e0 29 c5 3d fc e3 ff 3d 5b 2e 42 be
       -0.3891701 0.09627128 0.124946564 -0.18962996
000030 ae f3 c5 3d ea fb c4 bd 68 67 8f 3d 73 a4 22 3e
       0.09665619 -0.09618361 0.07002145 0.15883045
000040 80 e1 ad ba 59 e5 4d be 04 bd bc 3c b1 c5 8b 3e
       -0.0013266057 -0.2010702 0.023039348 0.27299264
000050 16 04 59 be 48 25 eb be 74 6a c1 bc 90 e6 b0 3b
       -0.21192965 -0.4592688 -0.023610331 0.005398579
000060 cb e8 4c bd 54 23 3a bd 48 b8 62 3d 10 5f 97 3b
       -0.050026696 -0.045443848 0.055351526 0.0046194866
000070 15 24 24 3d 2c e2 d3 3e 2b e2 2e be 16 43 65 3d
       0.040073473 0.41383493 -0.17078464 0.05597218

relu_bias f4 [32]
000000 34 02 c0 bf 8a ac ba 3e 88 8b 0a 3f fc 79 bf bf
       -1.5000672 0.36459762 0.5411916 -1.4959102
000010 23 db 34 3e dc da f8 3c 7b ac a1 3d f7 a4 fc 3e
       0.17661719 0.030377798 0.07894226 0.49344608
000020 89 00 40 3f 2a ab fe 3d 50 ed e8 3e 15 dc 1c 3f
       0.75000817 0.12434991 0.45493555 0.6127332
000030 9f ed 66 3f 18 0d 76 3c 18 74 8c be a8 bd b0 3e
       0.9020633 0.01501777 -0.27432323 0.34519696
000040 ef 3f c3 bd 34 d6 e7 3e b4 fe 5a 3f cd dd b1 3c
       -0.09533679 0.45280612 0.85544896 0.021712208
000050 e2 14 99 3e 87 e2 cf 3e 5e ac 03 bf 4b 73 68 be
       0.29898745 0.40602514 -0.51434886 -0.22700231
000060 de 44 91 bd 73 ae 1b bf 89 91 6a 3f b3 a8 b7 3e
       -0.070932135 -0.60813063 0.9162832 0.35870895
000070 5a 41 1d 3f a0 3c 34 3e 9c 1b b4 bd 48 4d 9a 3e
       0.61427844 0.17601252 -0.087943286 0.30137086

max_pool2d_bias f4 [64]
000000 0b 7e ff 3e 84 b1 7c 3e 90 ad 9f 3f 7b a5 18 3f
       0.4990085 0.24677092 1.2474842 0.59627503
000010 e2 30 a4 3e a0 92 6b 3f a2 6f 91 3e 72 27 8f bf
       0.32068545 0.92020607 0.28405482 -1.1183913
000020 5c dc ed be 9a 88 53 3f ac d1 6f bf 42 b4 a1 be
       -0.46457183 0.8263031 -0.9367931 -0.31582838
000030 60 22 0c bd f0 e9 a3 bc f0 c4 77 3e bc 5f 2f 3f
       -0.03421247 -0.020009011 0.2419622 0.68505454
000040 fa 62 5a bd df 5e 9e be 82 47 e4 3e 9b 65 0e be
       -0.053317048 -0.30931756 0.44585806 -0.13905947
000050 52 76 5e 3f 02 90 8f 3f c6 a8 1d 3f 75 ed 3c 3f
       0.8689929 1.1215823 0.6158565 0.7379983
000060 da e2 5b 3f 7e e6 53 be 2c 0d 4b 3f c0 5f 1e 3e
       0.85893023 -0.20693395 0.79316974 0.15466213
000070 98 13 46 3d 73 8f 6d 3f 1c 57 2a 3f d4 10 ce 3e
       0.04835853 0.9279701 0.6653917 0.40247214
000080 cd 2a 0e bf ac 64 2a 3f 93 2c f8 bd 6d bf f5 3e
       -0.5553406 0.66559863 -0.12117877 0.4799761
000090 3d f9 c2 3e 63 78 0e 3e fc 85 49 3f fd 9a a7 3e
       0.3808078 0.13913111 0.7872007 0.32735434
0000a0 10 84 64 3c fa 7f 62 3f 62 36 cb be 4c 36 b6 bd
       0.013947502 0.88476527 -0.39689928 -0.08897075
0000b0 1a 37 1a 3e 9b af 4f 3f 70 2b 13 bf c9 69 e6 3e
       0.15060082 0.8112733 -0.57488155 0.45002583
0000c0 c7 4d 61 3f 88 7d c6 be cd 3f 69 3f 30 8f ee 3d
       0.88009304 -0.38767648 0.9111298 0.116484046
0000d0 e0 96 0e 3f 3a c8 8d be 25 22 d6 3e e2 69 1b 3f
       0.55698967 -0.27691823 0.41822925 0.6070844
0000e0 5c ff 24 be 2b f5 71 3e 65 19 f3 3e 7c e3 79 3e
       -0.16113037 0.2362868 0.47480312 0.24403185
0000f0 9f be e2 be 7a 8f ca be b4 56 4c 3f db e7 20 bf
       -0.44286057 -0.3956259 0.798198 -0.62853783

relu_2_bias f4 [64]
000000 a8 38 20 bd 7e 4c 90 bf 4e a5 b2 be 16 95 88 3f
       -0.03911653 -1.1273344 -0.34891742 1.0670497
000010 64 15 f2 be d2 9a ab 3e e0 41 85 bf c6 39 e0 3e
       -0.47281945 0.33516556 -1.0410728 0.43794078
000020 fa a7 50 3f dd 20 08 40 e2 41 f3 bd 19 78 66 be
       0.8150631 2.1270058 -0.118778005 -0.22506751
000030 54 ff cd bd 4a bc 4a 3e 3a d6 1c 3f ed 13 8b 3e
       -0.100584656 0.19798389 0.61264384 0.2716364
000040 11 6c a6 3f 4d 5b c8 3e dd 06 9e be 44 3a f9 3f
       1.3001729 0.39132157 -0.3086461 1.9470906
000050 9e a3 05 3f 48 a3 aa 3f a1 60 b9 3f ba 5c 8e 3e
       0.52202785 1.333108 1.4482614 0.2780512
000060 cc eb c7 3f 55 fe 3c 3f 80 00 68 3f 4b b9 ba 3e
       1.5618834 0.7382558 0.9062576 0.36469492
000070 16 0b 6f 3f fc 8e 5d 3d d8 2e ac bd 7d 2a c4 3e
       0.9337629 0.05409144 -0.08407372 0.38313666
000080 72 f4 25 3f a2 eb 92 bd 14 aa 81 bf ac 4e 81 3f
       0.6482612 -0.0717385 -1.0130029 1.0102134
000090 c7 a2 c3 3e d0 c9 7c 3e 9c 89 6e bf 03 0f 28 3f
       0.38210127 0.2468636 -0.93178725 0.65647906
0000a0 bf ed cc 3f 14 25 45 3e cb 4a 48 bf 24 00 0a 3f
       1.6010054 0.19252425 -0.78239125 0.53906465
0000b0 2a 3b 89 be d4 ec 11 3e 62 41 50 3f 42 ba 86 3f
       -0.2680295 0.14250499 0.81349766 1.0525591
0000c0 2c 9a 86 3d e6 2d fe 3f a0 62 85 3f 60 53 06 bd
       0.06572375 1.9857757 1.0420723 -0.032794356
0000d0 7f 20 16 bf 8d c6 67 3f 74 7c 58 3f 39 3b a8 3f
       -0.58643335 0.9053734 0.845649 1.3143073
0000e0 2f 73 89 3e 0c 5e 43 3f ca a3 33 3f 8c 0f a5 3e
       0.2684569 0.7631538 0.701718 0.32238424
0000f0 b4 12 09 3f 3d 42 f5 3e 50 92 b7 bf cf 15 aa be
       0.53544164 0.47902098 -1.4341526 -0.33219764

cat_bias f4 [64]
000000 12 57 22 bf 72 13 b5 3e b3 70 0a bf a7 bd 9d 3e
       -0.6341411 0.35366398 -0.54078215 0.30808756
000010 20 7b 8e be c6 64 b5 3e 8f f6 c4 3e 55 f2 29 3f
       -0.27828312 0.35428447 0.3846936 0.66385394
000020 40 37 f5 3b 0e 41 06 3e cf ca 27 3e be 34 24 be
       0.007483393 0.13110754 0.16385959 -0.16035745
000030 71 cc ce 3e bf 97 1f bf 38 52 60 3e b0 b9 93 3e
       0.4039035 -0.6234092 0.21906364 0.28852606
000040 34 8b aa 3e c7 6e 91 3e b0 d3 bf 3c ff 7a 32 bf
       0.3330933 0.2840483 0.02341637 -0.6971893
000050 d1 c0 15 bf dd 8f e5 3e 80 c3 40 3e 22 eb 8c 3f
       -0.5849734 0.4483632 0.18824577 1.1009257
000060 5c b5 37 3f bc 85 5d bd 24 8a 60 bf d0 ca aa bc
       0.7176111 -0.054082617 -0.87710786 -0.020848662
000070 c8 8b 09 bf a5 51 9f 3e 50 c0 8f 3e ef 35 aa 3e
       -0.53728914 0.31116977 0.2807641 0.33244273
000080 97 fc c2 3e 60 af 2e bd 83 3d f6 3e ed 83 c1 be
       0.38083336 -0.04264772 0.48093805 -0.37795964
000090 2e 5b b0 3e fa ee 67 3e db 4a c0 3e 99 ae 49 bf
       0.34444565 0.22649756 0.3755711 -0.7878204
0000a0 74 3b 86 bf e4 15 3d 3f e6 9c b1 3d 53 06 1d bf
       -1.0486894 0.7386153 0.08672504 -0.61337775
0000b0 5d 28 e8 3e f4 94 02 bf 26 d3 54 3e 92 6e bd bd
       0.45343295 -0.51008534 0.20783672 -0.09249605
0000c0 5c 9d a4 bd 60 a6 df 3d e5 c3 69 bf 04 0a 59 3e
       -0.080378264 0.109204054 -0.91314536 0.21195227
0000d0 d0 b9 21 bd 08 22 86 bd f2 8a b4 be 13 91 4e bf
       -0.039483845 -0.0654946 -0.35262257 -0.80690116
0000e0 f3 27 85 bf 88 e5 af be c0 5f 3a bf 6a 1c e4 be
       -1.0402817 -0.34354806 -0.7280235 -0.44552928
0000f0 ec 4e ba 3e 1e a1 29 3e bf da 42 3f 6d 5d 28 bf
       0.36388338 0.16565368 0.7611503 -0.65767556

relu_6_bias f4 [64]
000000 82 fe 57 3f f9 55 dc 3e 76 df 62 3e bb 45 6f be
       0.84372723 0.43034342 0.22155556 -0.23366444
000010 31 0d 90 3e be f2 43 be 53 c7 03 bf e0 a9 bd 3d
       0.28135064 -0.19135568 -0.5147602 0.09260917
000020 54 40 49 be 6e 40 4e 3f 36 98 02 bf d8 80 01 3d
       -0.19653445 0.8056706 -0.51013505 0.031617016
000030 7e aa 0f 3e 9d 7a 4b 3f ff b1 16 3f b6 f8 5b 3f
       0.14029881 0.7948397 0.5886535 0.8592638
000040 60 6c 15 3c 6c 6a 23 3e 04 2d 39 3f 5c 88 c8 3e
       0.009120077 0.15958565 0.72334313 0.39166534
000050 a4 04 d4 3d c6 48 c4 be ee 62 62 3f 90 99 89 3e
       0.10352448 -0.38336772 0.88432205 0.2687497
000060 57 21 46 bf 02 3c 16 3f 3a a0 3d 3e 00 2d 4c bf
       -0.7739462 0.58685315 0.18518153 -0.79756165
000070 72 50 26 3e c0 63 3d 3f 40 89 3b 3e 34 ff a2 be
       0.16241625 0.7398033 0.18314075 -0.3183533
000080 13 fb 94 be fa 45 2d 3e 81 91 b7 3e fc 95 f8 3d
       -0.29097804 0.16921225 0.35853198 0.12137982
000090 22 cf c6 be 72 c4 fb 3d 80 50 24 bf 00 fc ac 3d
       -0.38829905 0.12293328 -0.64185333 0.08446503
0000a0 5b 6d 87 be 12 c7 13 3f 00 19 2c 3e 08 d3 71 3d
       -0.2645062 0.5772563 0.16806412 0.059039146
0000b0 35 11 20 3f 47 62 5c 3f c8 ed d5 3d 1e 01 92 be
       0.62526256 0.8608746 0.10445744 -0.28516477
0000c0 f6 38 04 bf 3d 02 8b 3e ab e8 19 3e 1c d1 99 3e
       -0.51649415 0.27150145 0.15030162 0.3004235
0000d0 23 d2 35 3f 08 0c 51 bd 13 0d 47 be 2e 3f dc be
       0.7102377 -0.051036865 -0.19438581 -0.43016952
0000e0 de 20 f8 be c8 f1 32 be 5e eb f1 3e c8 16 ee 3d
       -0.48462576 -0.17475045 0.47249883 0.11625439
0000f0 f2 fb 9c 3e a9 57 c4 be 88 fe 4d 3e ee 07 30 bf
       0.3066097 -0.3834813 0.20116627 -0.687621

cat_1_bias f4 [32]
000000 8d 09 93 bf 3f 35 7d be 9f 93 36 3f dc c5 03 3f
       -1.148729 -0.24727343 0.71319 0.51473784
000010 88 d7 7a 3d e8 f0 a8 3f 2d ef 93 3e 77 ea 02 be
       0.061240703 1.3198519 0.28893414 -0.12784754
000020 8b 31 c2 3e 8c d1 38 3f 0c 42 ee bd 5e 0b 84 3f
       0.37928423 0.72194743 -0.11633691 1.0315969
000030 23 d8 bb 3e 3a ca 15 bf b0 8d bf bd 82 28 97 be
       0.36688337 -0.585117 -0.093531966 -0.29523093
000040 b2 70 1a 3f 7d 9c 9d 3e 4f 2e 11 bf 18 71 f1 3e
       0.6032821 0.30783454 -0.56711286 0.47156596
000050 7a c2 22 3f 96 d2 6e 3f 1c 86 8a 3e a8 4c cf bd
       0.63578 0.9329008 0.27055442 -0.10122043
000060 89 50 0f 3f d1 c4 1a 3f 57 3e 0e 3f c0 b3 e8 3e
       0.5598226 0.6045657 0.55563873 0.45449638
000070 ee 1b 15 3e cb 88 61 be b5 db 06 3f 81 f5 32 3f
       0.14561436 -0.22024839 0.52678996 0.6990586

relu_8_bias f4 [32]
000000 d6 1a 3f 3f 49 6f 88 3d 37 02 83 3d 9e ea 32 3f
       0.74650323 0.06661851 0.06396907 0.6988925
000010 ba 88 af 3f 6f dc 17 3f 49 61 b8 3f c2 04 96 3f
       1.3713601 0.5932073 1.4404689 1.1720202
000020 f3 93 de 3f 6c b6 4c 3f e8 e1 4a 3f 0e 1f d9 3f
       1.73889 0.79965854 0.79250956 1.6962602
000030 0a 23 78 3d 4a a0 6c 3f 53 56 c1 3d 34 c8 d2 3d
       0.06058029 0.9243208 0.09440293 0.10292092
000040 70 38 df bf a6 a6 98 3d ef 53 c7 3e d3 d0 4d 3f
       -1.7439098 0.07453661 0.38931224 0.80396765
000050 14 f2 f3 3e 38 29 a6 3f 91 1c 8a 3e 56 6a ad 3f
       0.47645628 1.2981329 0.2697492 1.3548076
000060 e6 72 ef 3e 56 a0 0b 3f 2e 59 c5 3d e5 69 94 3e
       0.46767348 0.5454153 0.0963615 0.2898704
000070 8a 85 dc 3e 07 d8 92 3f 02 6f be 3e 08 1e 9a 3f
       0.43070632 1.1472176 0.37194067 1.2040415
