models/handseg.onnx (onnx, 12510 bytes, 11 tensors)

enc1.block.0.bias f4 [32]
00000000: e9a1 c6bf 05a0 edbf e926 ddbf df73 c6bf
00000010: e54b a73f 1e48 1f3c f47a d93f d18e e8bf
00000020: 3a8c e9bf 5731 e63f 6c71 f9bf 7e8b e43f
00000030: e87f f4bf 73e1 eabf 9ac4 443f 381d ee3f
00000040: 77cf bb3f ea2b 9d3f 35c9 bebf f9fc bd3f
00000050: 8f8d 603f fc73 94bf d3fa 5c3f 43cc f73f
00000060: 0faa 8c3e dd7c d53f 02a6 003f 7a2f e9bf
00000070: 7cad f33f 87ec e7bf ac2c bc3f 4ebf e83f
-1.5518161 -1.8564459 -1.72775 -1.5504111 1.3070036 0.009721784 1.6990647 -1.8168584
-1.8245919 1.7983807 -1.9487739 1.785507 -1.9101534 -1.8350052 0.7686249 1.8602667
1.4672688 1.2279027 -1.4905154 1.4842826 0.87716 -1.1597896 0.8632023 1.9359211
0.27473494 1.667873 0.5025331 -1.8217614 1.9037318 -1.8119057 1.4701133 1.8183382

enc1.block.3.bias f4 [32]
00000000: 1881 fc3d 3b1b adbf 4f2a da3e 21dd 23bf
00000010: 87a8 97bc ec9b caba 698d d9be 9f77 a93f
00000020: 837d ea3e 94f4 cfbf 3016 0b3f c8ae 153f
00000030: 4bb2 f7be a7b7 06bf 268b 09be a8f1 353d
00000040: f349 833f 9907 aabe 5ed6 c73e 8b0e 16bf
00000050: 2fcb 4e3f 7e2d 73be b315 58bf 2350 d7be
00000060: 1784 44bf e316 27bf c192 b4bf a969 39be
00000070: ea5c 503f 7637 35bf 5c18 4d3f 329b 853f
0.1232931 -1.3523935 0.42610404 -0.6400929 -0.018512977 -0.0015457845 -0.424907 1.323963
0.45798883 -1.6246514 0.5433073 0.5846982 -0.48378214 -0.5262398 -0.13431987 0.044419914
1.0256943 -0.33208922 0.39030737 -0.5861594 0.80778784 -0.23747823 -0.8440811 -0.42053327
-0.76764053 -0.652693 -1.4107286 -0.18106712 0.81391776 -0.7078775 0.80115294 1.0437987

enc2.block.0.bias f4 [64]
00000000: 0502 78be 1551 0b3f 6365 9dbe 255c 623f
00000010: cb14 b9bf 1711 f03e 8166 663e bd42 ebbf
00000020: 122b 3c3f afcf 30be 8971 59bf 4cb0 2c3f
00000030: d187 f5bd 0033 35bd 7b74 b8be a7b1 903f
00000040: be52 80be 38cb a9be 4fac 0b3e d298 adbe
00000050: 2b9d 11bf f9a3 56bf 473b a1bc d214 ff3f
00000060: 29f8 9a3f d7cf 43be ea24 b43e d8a1 33bf
00000070: cf36 cb3d a675 793f 068f 8a3f e13d a4bf
00000080: b38c 683f 96c8 ca3f 1794 6dbe 108b de38
00000090: 3371 9dbf 8a91 0040 6980 c7bf 6e83 773e
000000a0: 6256 1d3f cfc3 c63f 3b4d de3d 9d49 7ebe
000000b0: 700f da3e 5157 6abf 7446 323f b3c6 ea3f
000000c0: 01a1 00be ad08 acbe b28f 07bf 0d8c b5be
000000d0: 40a7 a7bf af1d 293e b09e 4a3c ab5a c0be
000000e0: 9316 4f3f c3ff 53bf f3fc c5bf 3fe5 063e
000000f0: 98d2 cdbd a782 2f3f ce3f 613e f3e2 b1bf
-0.2421952 0.54420596 -0.30741414 0.8842185 -1.445947 0.4688804 0.2250004 -1.8379742
0.7350322 -0.17266725 -0.84938866 0.6745651 -0.119887955 -0.04423809 -0.36026368 1.1304215
-0.25063127 -0.33162856 0.1363995 -0.33905655 -0.56880444 -0.8384395 -0.019681586 1.9928229
1.2106982 -0.19122253 0.35184413 -0.7016883 0.09922563 0.9744514 1.0824897 -1.2831384
0.9083969 1.5842464 -0.23201023 0.00010611687 -1.2300171 2.008883 -1.5586063 0.2417123
0.61459935 1.5528506 0.10854574 -0.24832769 0.42589903 -0.91539484 0.6963875 1.8341888
-0.12561418 -0.3360037 -0.52953637 -0.35458413 -1.3097916 0.1651523 0.012366936 -0.37569174
0.8089382 -0.82812136 -1.5467819 0.13173388 -0.10049933 0.68558735 0.21996996 -1.3897384

enc2.block.3.bias f4 [64]
00000000: 42bb 6bbe c454 17bf 1e81 ac3e cd81 4c3d
00000010: 3f9b c6bd 63ce 9b3e ab5d 7a3f e102 9fbe
00000020: 0092 e83e ec06 d03e 912a 83be 8695 7d3e
00000030: b0e4 81bf 6f06 de3e d038 b23f 83d0 353f
00000040: 8fc4 29bf cce1 87be 3973 91bf f158 d33d
00000050: 94b4 f9bd b105 9abe 5ceb a13b e69b 653f
00000060: c6f6 b73e 8136 babe 0e92 363d a3a9 863e
00000070: 178a ca3f 2b82 203e c223 84bf d0f4 f03d
00000080: 8ff5 453f 180d 003f dca8 923e 5bc1 f4be
00000090: 6049 9d3e 7cd8 abbe ae83 97be 3821 03bf
000000a0: 4df8 6abd 1f29 403e b080 18be 9cdf 3d3d
000000b0: bb90 46bf da81 f63d 2f52 923d 3c42 66be
000000c0: 68d0 a2bf b418 883e d186 5d3f e4a1 39bf
000000d0: 5a3e 393e 3172 8a3e 5607 24be 5a06 c43d
000000e0: 0bb2 223e 8072 7c3e 01d6 96bd 9890 7bbe
000000f0: b0c4 54bd 6653 2e3f 4ef9 6fbf 2664 123f
-0.23020652 -0.5911372 0.3369226 0.049928475 -0.096975796 0.30430898 0.97799176 -0.31056884
0.4542389 0.4063028 -0.25618413 0.2476407 -1.0147915 0.43364283 1.3923588 0.7102129
-0.6631555 -0.26539457 -1.1363288 0.103196986 -0.12192646 -0.30082467 0.004941387 0.8969101
0.3593046 -0.36369708 0.044572882 0.26301298 1.5823392 0.15674655 -1.0323412 0.11765444
0.7732782 0.5001998 0.28644454 -0.4780377 0.30720043 -0.33563602 -0.2959265 -0.5122256
-0.057365704 0.18765686 -0.1489284 0.04635583 -0.7756459 0.12036486 0.071445815 -0.22486204
-1.271985 0.26581347 0.8653384 -0.7251265 0.18090191 0.27040246 -0.16018423 0.09571524
0.1588823 0.24653053 -0.07365037 -0.24566877 -0.05194539 0.68096006 -0.93739784 0.57184064

up2.bias f4 [64]
00000000: 7a84 37bd 1294 073d f324 56ba fb81 5abd
00000010: 0e05 fc3c 107f cd3c 8d41 47bc fb1a 3a3d
00000020: d363 1f3c d1aa e7bb c42d d33c 34db e7bb
00000030: 8b18 20bd 552c 3cbb 82d1 543d 62e6 ddbb
00000040: ebc8 b23a 2a6d ed3c b7d5 7ebd 7735 823d
00000050: faae 81ba a5a6 b1bc 4cbd 55bd 8ae6 373d
00000060: ff39 083d 4f5c 5d3c 5409 053d 72bd 573d
00000070: 56d1 74bc 10ce 173b 0835 37bd 78e6 a7bc
00000080: b757 5bbc f66e 6c3d 789f 13bd 2905 143c
00000090: f473 8cbc e2e8 833d 31d8 1e3d 27a3 2e3d
000000a0: b50d f5bc 0a62 fbbb db68 163c 1487 7dbd
000000b0: d109 393d 60c5 8a3d bbf8 3abd f822 c73c
000000c0: fdd7 47bc f181 213d 5b1d 07bc c71e 0dbd
000000d0: 0db4 55bd 57af 64bd 7245 083d 8a13 e4bc
000000e0: bbd4 363d 258d 61bc 60ec 3f3d 311b 093d
000000f0: d589 68bc d45d c23c d874 1cbd d3f8 c0bc
-0.044804074 0.033100195 -0.0008168958 -0.053346615 0.030764129 0.025085002 -0.012161625 0.045435887
0.00972839 -0.0070699234 0.025778659 -0.0070756916 -0.039085906 -0.0028712947 0.051957615 -0.0067718485
0.00136402 0.028982718 -0.062215533 0.06357854 -0.0009894066 -0.021685908 -0.05218248 0.044897594
0.033258434 0.013510778 0.0324796 0.052670904 -0.014942488 0.0023163594 -0.04472831 -0.020495638
-0.013387612 0.057723008 -0.036040753 0.009034433 -0.017145135 0.06440903 0.038780395 0.042636063
-0.029913763 -0.0076715993 0.009180273 -0.0618964 0.045175377 0.067759275 -0.045647364 0.024308667
-0.012197492 0.039430562 -0.008246745 -0.03445318 -0.052173663 -0.05583128 0.033269353 -0.027841348
0.04463647 -0.013766562 0.046856284 0.033473197 -0.014193018 0.023726381 -0.03819737 -0.023556149

dec2.block.0.bias f4 [64]
00000000: 374c cabe 1f85 8fbc e863 3abf d555 313e
00000010: de0e cbbd 329e 103f 3507 433e 6959 913d
00000020: beb5 03be cf14 8fbe 5e1e c83e 84c3 89be
00000030: d87a f73e 9c0d 0a3f 17c4 c23e 709f 303f
00000040: 4624 a53e 2d48 02be e5b2 303e 35c3 d83e
00000050: 8071 64be 14b4 e13e cb27 133f dafd 3a3f
00000060: 1a88 b5be 5ae9 babe da98 aa3e 7c23 cfbe
00000070: 5219 313e ded1 83be 714f 2a3e a3fc 2dbf
00000080: 163d 19bd 8042 033f f708 a3bd efa2 8b3f
00000090: 4d11 96be f423 98be 5418 b13d daf4 863e
000000a0: d971 773d 1094 933d f24b 46be f8d4 3b3e
000000b0: 9418 7e3c 3fe5 513f c7d0 2e3f dc36 623d
000000c0: 1f83 44be 5912 453f 112a e03e 0e8b eb3e
000000d0: 94da 323f 3c51 b23e 5404 f8be abc9 103d
000000e0: 7192 ffbe 63d1 b8bd 824d 4a3f b85e 2b3e
000000f0: 580a 29be d0e0 c73e dc9f 0dbc 9b4b cf3e
-0.39511272 -0.017519532 -0.72808695 0.17317899 -0.09914945 0.56491387 0.19045718 0.07097132
-0.12862298 -0.27945563 0.39085668 -0.2690698 0.4833591 0.53927016 0.3804023 0.6899328
0.32254237 -0.12722845 0.17255743 0.4233643 -0.22308922 0.440827 0.57482594 0.73043597
-0.354554 -0.36506158 0.3331974 -0.4045676 0.17294815 -0.25746053 0.16631867 -0.6796362
-0.03741177 0.51273346 -0.07960694 1.0909098 -0.29310074 -0.2971493 0.08647218 0.26358682
0.060411308 0.07205975 -0.19364908 0.1834296 0.01550879 0.81990427 0.6828732 0.0552281
-0.19190644 0.7698112 0.43782094 0.46004528 0.69864774 0.34827602 -0.48440802 0.035348576
-0.49916413 -0.09024312 0.7902452 0.16735351 -0.16507852 0.39038706 -0.0086440705 0.4048737

dec2.block.3.bias f4 [64]
00000000: 6f79 2dbd 5b95 4c3f e30b a93d 4e8d a83f
00000010: 8752 033f c93c babe 5438 c73f d5ac b03f
00000020: bdf6 163f e0c0 fd3d 1180 09be ea17 6a3f
00000030: 0a4f b73f 0fa7 07be 19bc 8bbc 761d 863e
00000040: dedb de3e c678 6e3d 2464 2abf 21bd 343f
00000050: 994d 9b3d 7c0b 01bf 10d5 43be 00de b43d
00000060: 396f 35bc 6b9f 48bf fa18 e1be 602b 9a3f
00000070: 5c2f 413f dcbd 383f 1fef d6be bf28 583f
00000080: 2d9f fc3e 680c b63f 6361 793d 91e8 ff3e
00000090: 5b5d ce3d 50bd 8a3f 29e9 793f a60d 883e
000000a0: d6d9 943d 4212 8b3e 78c6 733e fd54 9dbd
000000b0: b2be 03be 2956 babe 71d5 353e b056 6b3f
000000c0: 8049 8dbe be82 a1be 27c4 163f 1b7f 9f3e
000000d0: 64da b2be 063f 233f 19c5 303f 2694 39bd
000000e0: 32ab 1e3d 9660 a6be ef91 b9bb bf6e ca3e
000000f0: 7cf4 07bf 84a6 39bd e868 603f b5b5 69be
-0.042352136 0.799154 0.0825422 1.3168123 0.512978 -0.363745 1.5564065 1.3802744
0.5897024 0.123903036 -0.1342776 0.9144274 1.4320996 -0.13247322 -0.017057465 0.26194352
0.4352712 0.058220647 -0.6655905 0.7060109 0.0758316 -0.5040815 -0.19124246 0.08831406
-0.011073881 -0.7836825 -0.43964368 1.2044487 0.7546289 0.721647 -0.4197931 0.84437174
0.4934019 1.4222536 0.06088389 0.49982122 0.100764 1.0839024 0.976214 0.26572913
0.072681114 0.27162367 0.23806179 -0.07682226 -0.12865713 -0.3639386 0.17757203 0.9192915
-0.2759514 -0.3154506 0.58893055 0.3115166 -0.34932244 0.6376804 0.6905075 -0.0453073
0.038737483 -0.32495564 -0.0056631486 0.39537618 -0.5310743 -0.045324817 0.87660074 -0.22823222

up1.bias f4 [32]
00000000: 367a 66bd 2060 ab3d cf15 39bd cb39 18bd
00000010: 8d29 39bd 5958 2cbb 803d 5e3d 2568 d8bc
00000020: 15fd 53bd f1f0 f6bc 1958 cb3b 1620 cc3c
00000030: 2649 8d3c 4128 a13d 9eee 74bc f45c d43c
00000040: d98d 92bd d151 163d 24e3 99bd c0d8 28bd
00000050: 6fbe d83c cd3f 373d e03f 83bd e392 153c
00000060: 578a 45bd acb4 67bd c14e cd3d 8a75 693b
00000070: 32bf 903c 7a82 31bc 41de 64bc feef 83bd
-0.056268893 0.08367944 -0.045186814 -0.03716449 -0.04520564 -0.0026297776 0.05425787 -0.026416847
-0.05175503 -0.030144187 0.0062055704 0.024917644 0.017246794 0.07869006 -0.014949469 0.02592323
-0.071559615 0.03669912 -0.07514027 -0.041222334 0.026457993 0.04473858 -0.064086676 0.009129259
-0.048227634 -0.056568787 0.10024787 0.0035623037 0.017669294 -0.010834331 -0.013969005 -0.06442259

dec1.block.0.bias f4 [32]
00000000: c87f 813d e7ac 0f3f 0676 0c3f 92ef cd3e
00000010: ea20 c73d b409 bdbb 559c 5d3e 7766 6c3f
00000020: 2b78 1bbc 7002 543f 77a0 163f 6176 263e
00000030: 707e 363e c808 343f ab43 463f 0234 923e
00000040: 8303 c0bd 8c27 bf3e 6c8f 9c3e 94cf 4a3e
00000050: a9ba 5b3e c3e9 40bf b59d d3bd 5edd 563e
00000060: bc0b 013d b47e 5c3e 2ce2 023f a8c1 efbe
00000070: 64ad e03e 30f5 c33e 6dc2 02bf 7534 bc3e
0.063232005 0.56123203 0.5486759 0.4022184 0.09723075 -0.005768979 0.21641667 0.9234385
-0.0094890995 0.8281622 0.588386 0.16256095 0.1782167 0.703259 0.77447003 0.28555304
-0.0937567 0.3733486 0.30578172 0.19805747 0.21457924 -0.7535669 -0.103328146 0.20982882
0.03150533 0.21532708 0.5112636 -0.46827435 0.43882287 0.38273 -0.5107792 0.36758772

dec1.block.3.bias f4 [32]
00000000: 1a5d 543e 5a8a 1bbe bef9 d8be 7a1c 16bf
00000010: a2b1 903d 848d be3e f893 093f 4143 623d
00000020: 342c a3be a435 ff3e bb86 a2be 5c6a 89bd
00000030: a9c7 90be a0e0 10bf 42e5 07bf 287f 043e
00000040: 2505 fb3d dfff c0be b5f6 54bd 2e79 a2be
00000050: f4e3 a2be 1f07 19bf 8968 21bf ffaf 4fbe
00000060: b341 a7bd fa91 00bd 8574 00bf 35fd c3be
00000070: 46c6 b7be 4c9d 75bf 05cd 9b3e e1ee 4ebe
0.2073864 -0.15189496 -0.42378038 -0.586372 0.07065131 0.37217343 0.5374141 0.05523992
-0.31869662 0.49845612 -0.31743416 -0.067097396 -0.2827733 -0.5659275 -0.53084195 0.12939131
0.122568406 -0.37695214 -0.05199309 -0.31733078 -0.3181454 -0.5977649 -0.63050133 -0.20281981
-0.08166828 -0.031389214 -0.50177795 -0.3827912 -0.35893458 -0.9594314 0.30429855 -0.20208313

out_conv.weight f4 [1, 32, 1, 1]
00000000: e823 88bd 717a 233d 6657 9a3d ef77 bf3d
00000010: 0e7b 343e aa28 debd f3bc 79bd c61c 63bd
00000020: ae37 6b3d 6457 f43c 111e a7bd 7223 5dbd
00000030: 38ee efbd 7540 553d be2d 46bd e1b4 19be
00000040: e664 9cbd 9754 e33d 5554 693d 3926 f5bd
00000050: 2c40 293e aa7f 4cbd 6382 d2bd bc0c ebbd
00000060: 40da 08be 94a1 d1bd 4380 ebbd 9e1d 2cbe
00000070: bc38 39bd 4a3c 9fbd 373a 0e3d 1c2d a6bd
-0.066474736 0.03991169 0.07536201 0.093490474 0.17625067 -0.108476 -0.06097121 -0.055447362
0.057426147 0.029826827 -0.081600316 -0.05398888 -0.117153585 0.052063424 -0.048383467 -0.15010406
-0.07636432 0.111001186 0.05696519 -0.11970181 0.16528386 -0.049926437 -0.102787755 -0.11477038
-0.13364506 -0.10235897 -0.11499073 -0.16808173 -0.04522012 -0.07775171 0.034723487 -0.08114073
